weights/model_epoch_0.pth (torch, 8815 bytes, 6 tensors)

sfm.sfm_cell.fre_W f4 [1, 15]
00000000: a9b7 ffbe 25ab 74bf 4147 30bf cc9b cf3e
00000010: 205f 48bf 76e0 243f c2c1 dcbe b8ed ddbd
00000020: af8b 36bd 626e 68bf 2e9e 0bbe 2729 ed3d
00000030: b69b 183f d95c d2be d80c 4b3f
-0.4994481 -0.95573646 -0.68858725 0.4054855 -0.7827015 0.64405 -0.43116575 -0.10836357
-0.044566806 -0.9079343 -0.1363456 0.11580115 0.59612596 -0.41086462 0.79316473

sfm.sfm_cell.fre_U f4 [1, 15]
00000000: 8ba9 75bf c17d 553f 44b9 293f 2fe0 e7be
00000010: 010f 893d e485 68be 580e 2a3c 214a 7c3f
00000020: f755 9cbe 75d7 383e a8da 743f 1b45 fa3e
00000030: dac2 e13e dfd7 3b3f 22f2 5abe
-0.9596183 0.8339501 0.6629832 -0.45288226 0.06692315 -0.22707325 0.010379396 0.9855061
-0.30534336 0.1805094 0.9564614 0.48880848 0.44093972 0.7337627 -0.21381429

sfm.sfm_cell.fre_b f4 [15]
00000000: 64f7 4f3f 46a1 043e 2d9a 11bf e7b3 54bf
00000010: f34f 663f df06 523f eb8b f13e 8ee9 a1be
00000020: 92c2 75bf b6a3 523d c2bb 70bf de18 053f
00000030: d96a a43e 523f f3bb 9702 1cbf
0.81236863 0.12952146 -0.5687588 -0.8308701 0.8996574 0.82041734 0.4717706 -0.316235
-0.96000016 0.05142566 -0.94036496 0.5199107 0.32112768 -0.00742332 -0.6094145

sfm.sfm_cell.a_U f4 [15, 1]
00000000: ce4b 143d f0bb 763f 507b 213f ca78 90bd
00000010: 8a88 503e 7d62 6b3e f9d4 fc3e 5737 dcbe
00000020: 292f 803e 7a1b eb3e 9ac2 283f 1af9 2f3e
00000030: 40b6 b0be 33b2 bf3e c67e 3ebe
0.036205105 0.9638052 0.63078785 -0.07054289 0.20364586 0.22986789 0.49381235 -0.4301097
0.2503598 0.459194 0.6592194 0.17184868 -0.34514046 0.37440643 -0.18603048

Finalfc.fc4.weight f4 [7, 30]
00000000: 50ae 193d fc91 14be 3144 c3bd 06ea 913c
00000010: b95a 8a3d f610 5b3c 0ce4 bc3d 8e83 bfbc
00000020: 59de d2bd 9bca 9ebc af30 c6bd afdb df3d
00000030: f322 193e 9e01 463c 7b42 b3bd 2eac bc3d
00000040: d486 c8bd 67d4 023d 74ed 02bd 2cc4 42bb
00000050: 647b 2cbe 5eb2 123e 6b13 20be d79d cc3d
00000060: 1c6e 2abe ff47 333e 581e debc 6804 033e
00000070: e68c eabd 86a7 b03d ca92 12be fd1f be3d
00000080: f88a 2a3e de51 12be f0f6 a7bd 3ba0 c13d
00000090: 14a8 36be c4f9 dfbd c343 aebd cce2 233e
000000a0: 8f38 38be 1cb5 b73d 4eb0 0bbe 6418 913d
000000b0: 961a cd3d 0e2c d1bd 14eb 183e 22a0 31be
000000c0: f119 0e3e 68f0 f33d 3dde 533c 165d 82bd
000000d0: ea85 2cbd 39dc b6bc 84aa 0fbc 1268 d6bd
000000e0: 9758 2abe 5022 4c3d 4a47 123e efc4 083e
000000f0: 0ba1 b83d 5bdc fa3d bdc4 16bc 580a e2bd
00000100: 2149 d2bd 2cf9 07be 2412 3abe d822 21be
00000110: f473 2c3e 9e3c b63d 2128 87bd bd63 19bd
00000120: 4297 34be 359d d0bd 7cdf 58ba 0039 e6bd
00000130: 1484 a9bb 2547 283e 85bc 1d3e d1ad 193e
00000140: 8d7d aa3d 6f51 04be a76d 153d 7acb a6bd
00000150: 6eee ff3d 94f3 283d b20c 21bd 086e 06be
00000160: fa73 d83d 2f3b e2bd 7042 263e ed60 39be
00000170: dc50 c03c c52a 8ebd 66c7 293e 04be ea3d
00000180: faa1 423d 913d 873d fe40 04bc 6489 a7bd
00000190: ce02 6e3d e9ee 353e 6317 e8bd ac13 e5bc
000001a0: 630e 9ebd 0c78 1c3e b7c5 1c3d 90b2 0f3e
000001b0: ba3a a7bd ddd1 1abd 5a95 9d3c 5c42 203d
000001c0: a7f0 c13c 3491 233e c29e 3cbe 35c7 28be
000001d0: 20f1 813d 2408 05be c7ff 073e 22a8 14bc
000001e0: 5e63 db3b c5db 3abc e632 b63d e25c f93d
000001f0: 33b8 0f3e d99c 993c 9273 edbd e3c5 c93d
00000200: 7be5 2c3c 2f60 333e 695c 12be b37a 89bc
00000210: b03c 93bd 8135 253e 6e6d 8aba 0890 7c3d
00000220: 7706 9e3d 9fc3 cfbd d566 a73d 56f6 15bd
00000230: dbbe 0d3e df49 01be 54ea 05be 61c3 35be
00000240: bac0 39be 37ef 6bbd 3462 49bd 76cd 06bd
00000250: a2fc 2ebd cd31 e03d 9c0d 283d f39d efbc
00000260: da96 31be 382e 1abe b67c 34be 7e8f e0bd
00000270: e028 17be 3054 26be fcfd f53b 44c0 093d
00000280: 3f2c d53d f2e4 1dbe b005 13be 30f0 033e
00000290: d09f 0e3e 6e5e 043e 9c84 a5bd 712e 23be
000002a0: 495b 673d ff39 aa3d bfb0 f7bc 5ec3 45bd
000002b0: b564 153e 35d7 283e ae74 be3d 9ec9 22bd
000002c0: 9c19 a43c 5da6 8ebd bc41 0cbc ba8b ed3d
000002d0: 6b25 c2bd f735 2bbd 4756 fb3d d6f2 38be
000002e0: 5018 94bd 3d61 0b3e 741e fbbd 4601 89bd
000002f0: e14c 153e c170 dfbd 3250 68bc 74a9 053e
00000300: 5ea2 2a3e e025 dcbd 74fd 0cbe 50ce d5bc
00000310: af80 323e 2ac2 edbd a0aa b6bc 7630 c33b
00000320: a716 203e d6d5 19be d116 89bd 1881 af3d
00000330: e413 4d3d 0e36 0b3e 5bf1 26be 9f1f c73c
00000340: e6d2 373e 5000 5d3c
0.037519753 -0.14508814 -0.09534491 0.017811786 0.06755585 0.013370743 0.09223184 -0.02337816
-0.10296316 -0.01938372 -0.096772544 0.10930573 0.14954738 0.0120853465 -0.087529145 0.09212528
-0.097913414 0.031940844 -0.031964734 -0.0029718978 -0.16843945 0.14325854 -0.15632407 0.09991043
-0.16643566 0.17507933 -0.027114078 0.1279465 -0.114526555 0.086257026 -0.14313808 0.09283445
0.16654575 -0.14289042 -0.082013965 0.0945439 -0.17837554 -0.10936311 -0.08509018 0.16004485
-0.17990325 0.08970091 -0.13641474 0.0708473 0.100148365 -0.10213481 0.14933425 -0.17346242
0.13877083 0.11911088 0.012931404 -0.06365411 -0.042119898 -0.022321807 -0.008768681 -0.104690686
-0.16635357 0.04983741 0.14285007 0.13356374 0.090150915 0.12249061 -0.0092021795 -0.11037129
-0.102678545 -0.13278645 -0.18170983 -0.15735948 0.16841108 0.088982806 -0.06599451 -0.037448633
-0.17635825 -0.10186235 -0.0008273048 -0.11241341 -0.0051732156 0.1643339 0.15403946 0.15007712
0.08324728 -0.1292169 0.036481526 -0.08144279 0.12496649 0.04124792 -0.039318748 -0.13127911
0.10568996 -0.110464446 0.16236281 -0.1810338 0.023476057 -0.069417514 0.1657997 0.11462024
0.047517754 0.0660354 -0.008072136 -0.08180502 0.058108144 0.17766918 -0.11332586 -0.027963482
-0.07717588 0.15280169 0.038274493 0.1403296 -0.08165498 -0.037797797 0.019236255 0.039125785
0.023674322 0.1597336 -0.18419936 -0.16482241 0.06344819 -0.12991387 0.13281165 -0.009073289
0.006695195 -0.011404936 0.08896427 0.12175919 0.1403511 0.018751549 -0.11594309 0.09852197
0.010552759 0.1751716 -0.14293064 -0.01678214 -0.071893096 0.16133691 -0.0010561177 0.061660796
0.07716077 -0.10144734 0.081739105 -0.036611877 0.13842337 -0.12625836 -0.1307767 -0.17750312
-0.18139926 -0.05760118 -0.04916592 -0.032910787 -0.0427214 0.10946999 0.041028604 -0.02925012
-0.17342702 -0.15056694 -0.17625698 -0.10964869 -0.14761686 -0.16243052 0.007507084 0.033630624
0.1040883 -0.15419367 -0.14357638 0.12884593 0.13928151 0.12926647 -0.08081934 -0.15935685
0.05648354 0.08311843 -0.030235646 -0.04828202 0.14589198 0.16488345 0.09299599 -0.03974306
0.020031743 -0.06965325 -0.008560594 0.11598916 -0.09479793 -0.04179951 0.122723155 -0.18061385
-0.072312 0.13611312 -0.12261668 -0.06689696 0.14580108 -0.10910178 -0.014179276 0.13052922
0.166635 -0.107494116 -0.1376856 -0.026099354 0.17431901 -0.116092995 -0.022298157 0.0059567047
0.15633641 -0.15022978 -0.06693805 0.085695446 0.050067797 0.13594839 -0.16303007 0.02430707
0.17951545 0.013488844

Finalfc.fc4.bias f4 [7]
00000000: b842 bd3d 8b15 0a3e e182 cbbd b26c 11bc
00000010: b45b 17be 3b37 163e e52e 243e
0.09241241 0.1348478 -0.099370725 -0.008876013 -0.14781076 0.14669506 0.16033514
