weights/model_epoch_1.pth (torch, 49359 bytes, 26 tensors)

DA_lstm_layer.encoder.encoder_lstm.weight_ih f4 [40, 60]
00000000: d5e8 96bd e7c6 a33d fbdb 183e c83d cd3d
00000010: a878 8e3e a066 b5bc 2a6d 21be 9441 563e
00000020: 6480 8c3e 325e 163e a0a8 023e 7880 9fbd
00000030: 64fb 3abe 7920 e83d d08d 98be ca95 86be
00000040: 5048 483b 1d9e 623d 9ba0 8a3e 71be 7d3d
00000050: b648 e0bd fda2 96bd f946 323e 4718 743c
00000060: 9acc 373d 94e7 e9bd 240a 013e 295a 43be
00000070: 0461 7b3e 6219 6d3d 4f5a 8e3e 3f72 f1bd
00000080: 3967 073d d9fe 053d f631 21bb ee8a 893e
00000090: 591d 9abe 2f01 983e d214 37bc efad 8bbe
000000a0: af24 193e 25e4 f2bd 778f 99be 0a13 073e
000000b0: c2dd 0bbd d0b5 88be ffcb 34be 3879 31be
000000c0: e870 083d 658e 643e 436f d8bc 15d1 34be
000000d0: 1dbe 493e bc47 52bd cd66 16be ef46 00be
000000e0: 5da0 e33c aae3 f5bd 12a2 33bc f4b6 0e3e
000000f0: f924 60bc 8584 173e 532e 3d3e 4318 0f3e
00000100: 699e 363e da00 263c 809f 41be ecde 20be
00000110: 71e0 203e 16cb fb3d bf20 41be 2b8d df3d
00000120: 6c09 143e 08c4 24bd c84a 5fbe 9984 f63d
00000130: 90e0 babd 9d6b 2e3e a615 babc 933b 17be
00000140: d44f 26bd d596 9e3e 2906 90be 99a6 ed3d
00000150: 89e8 18bd 9330 893e bddc dc3d 0735 80be
00000160: db85 8b3e eb66 bcbc c324 2ebe d7e1 0abe
00000170: 3e24 80bd a84d 4e3e 2ae1 c6bd 2ddb 85bd
00000180: 8724 05be 27f5 443e 987d 99be d822 aebd
00000190: 6915 123e d31c 88bd c4a4 22bd 2a96 6e3e
000001a0: 0ec8 8b3e 2dce 38be 089d 89be 2530 803e
000001b0: b270 35be f5d3 453e 7e16 9cbe aaf2 1fbe
000001c0: 49b4 a93d 41a0 5c3e 4b6e 783d 40ab 96bc
000001d0: 5251 61be 45fb 8b3a 8bac 023e 21a2 823d
000001e0: a661 333e 1430 2ebd d868 81bd d7c6 22be
000001f0: e38d 3c3e 87dd 2abe 8124 643d 67c0 2e3e
00000200: 67f8 00be 3dc2 32be 9e7f ae39 b7e7 3a3e
00000210: 1262 2b3e a898 973e 34c6 aaba 2afe a1bd
00000220: 6046 70bd 4f4b 6c3e 1ee3 083e 9f37 973e
00000230: 8e02 9abe e423 393e 5391 eebd 61f7 1d3e
00000240: 324c bdbd aa06 073d fc59 2ebe 9d85 80be
00000250: 39e0 bc3c 2dc6 80be e309 08be cc83 8dbe
00000260: 01b9 08be 9c5d 9bbe 713d 5b3e 4034 af3c
00000270: c024 29bd 37c6 913e 226f 84be bc14 b23d
00000280: 55e1 7c3e 1008 0d3e 5cff 003c 93e2 18be
00000290: 3743 7a3e 6d93 66bd 62c9 32bc 52d3 d3bc
000002a0: 31c8 003e 22cf 95be 3068 d13a 584c 58be
000002b0: 4543 23be ae97 edba 733c 0a3d d34a b43d
000002c0: 4642 a93c d1ef 953e 2906 d93d c367 663e
000002d0: 694c 783d d754 90bc 61b1 933c e8dd 5dbd
000002e0: 157c 75be 3d33 423e deb3 d63d ee5a d93d
000002f0: f544 0c3e a46c 10be 10ea 213e 0b37 0dbe
00000300: b493 d63d 55a8 5bbe 34a5 86be 6678 463e
00000310: c0a5 003e 2052 673d b032 4bbd 3e8b 0a3c
00000320: dd22 89be 39fe 333e 2804 88be 92bb 6bbd
00000330: dc72 063e 461d 96be 4bc5 623e db41 71bd
00000340: 99fd 96be 918c f03d fa1a 653e 45ba d93d
00000350: a969 783e e0da ebbd 05e0 25be bd62 68be
00000360: 837c 78be 6a50 203d 250c 553d 755f fdbd
00000370: 51cd 793d 1095 4cbe fee5 653e b605 03be
00000380: 4f94 8b3e 387f bebd 07c5 9ebe d2d2 d6bd
00000390: fa18 fdbc 983d 38be a793 b1bc ec08 c73d
000003a0: 913b e33b 8ee0 20ba a5d5 c9bd 1e92 b3bd
000003b0: 95e5 923d c8b5 68be 7c14 963e 01a7 6b3e
000003c0: 4ac3 7bbe 1e90 353e de91 883e 6858 71bd
000003d0: 15c5 8f3e d9a6 8a3e 1ebe 083d 7dbb 3d3e
000003e0: d372 e53d 4339 f0bd d624 6a3e 0de4 153d
000003f0: c5d5 683d 04b4 3d3e 2988 f3bb 18ee 63be
-0.07368628 0.07996922 0.14927666 0.100215495 0.27826428 -0.022143662 -0.15764299 0.20923454
0.27441704 0.1468437 0.12759638 -0.07788175 -0.1825996 0.11334319 -0.29795694 -0.26286155
0.003056068 0.05532657 0.27075657 0.061949197 -0.109513685 -0.07355306 0.17409886 0.014898366
0.044872858 -0.11421123 0.12601525 -0.19077362 0.24548727 0.057885535 0.27803275 -0.11789369
0.033057425 0.032713745 -0.002459643 0.26863807 -0.30100515 0.29688403 -0.011174398 -0.27281138
0.149554 -0.11859921 -0.29992267 0.13190857 -0.03414703 -0.26701212 -0.17655943 -0.17331398
0.0333108 0.22319944 -0.026420241 -0.17657883 0.19701429 -0.051337942 -0.14687653 -0.12527059
0.027786428 -0.12006314 -0.010963934 0.13936979 -0.01368069 0.14796646 0.18474703 0.13974099
0.17833866 0.010132039 -0.189085 -0.15710038 0.15710618 0.12294595 -0.18860148 0.109155975
0.14456719 -0.040226012 -0.2180587 0.1203701 -0.09124863 0.17033239 -0.0227154 -0.1476882
-0.040603474 0.3097445 -0.281297 0.116040416 -0.037331138 0.26794872 0.1078429 -0.25040457
0.2725056 -0.022998294 -0.17006211 -0.13562714 -0.06256913 0.20146811 -0.097109154 -0.06535945
-0.13002215 0.19234143 -0.29978633 -0.0850274 0.1426598 -0.06646123 -0.039707914 0.2329947
0.27301067 -0.180474 -0.26877618 0.2503673 -0.17718771 0.19319136 -0.3048591 -0.15619913
0.0828634 0.21545507 0.06065206 -0.018392205 -0.22003677 0.0010679743 0.12761132 0.0637858
0.17517719 -0.04252632 -0.063188255 -0.15896164 0.184135 -0.16686068 0.055698875 0.17065583
-0.12594758 -0.17456909 0.00033282948 0.18252455 0.1673663 0.29608655 -0.001302904 -0.07909806
-0.058660865 0.23075603 0.13367888 0.29534623 -0.30080074 0.18080097 -0.11648812 0.15426399
-0.09243049 0.03296534 -0.17026514 -0.2510194 0.023056136 -0.25151196 -0.13285021 -0.27639616
-0.13351823 -0.30344856 0.21410157 0.02138722 -0.041294813 0.28471538 -0.25866038 0.08695361
0.24695332 0.13772607 0.007873382 -0.14930181 0.24439703 -0.05629294 -0.010912271 -0.025857601
0.12576367 -0.29259592 0.0015976485 -0.21122873 -0.1594363 -0.0018126869 0.033749055 0.08803334
0.020661484 0.29284528 0.10596878 0.2250052 0.060619745 -0.01761858 0.018028917 -0.054166704
-0.23973115 0.18964858 0.10483526 0.106130466 0.1369818 -0.14103943 0.15811944 -0.13790528
0.10477391 -0.21450932 -0.26297915 0.19381866 0.12563229 0.056474805 -0.049608886 0.0084560495
-0.2678441 0.17577447 -0.2656567 -0.057551928 0.13129753 -0.2931921 0.22145574 -0.058900695
-0.29490355 0.11745561 0.22373572 0.10631231 0.24259056 -0.115163565 -0.16198738 -0.22693916
-0.24266247 0.03913919 0.052013535 -0.123717226 0.06098682 -0.19978738 0.22451016 -0.12795147
0.27261588 -0.09301609 -0.31009695 -0.104894295 -0.030895699 -0.17992246 -0.021676851 0.097184986
0.006934591 -0.0006136977 -0.098552026 -0.08768104 0.071726955 -0.22725594 0.29312503 0.23012926
-0.24586216 0.17730758 0.26673788 -0.0589222 0.2808005 0.2708042 0.033384435 0.18528552
0.112035416 -0.11729672 0.22865614 0.03659444 0.05684449 0.18525702 -0.007432003 -0.22258794

DA_lstm_layer.encoder.encoder_lstm.weight_hh f4 [40, 10]
00000000: 2bf4 81be 8e08 d13b cb86 08be 8701 d0bd
00000010: eb70 97be a84a eb3d 6a45 823e 9670 123e
00000020: 97ac cc3d d183 583e 2bc4 523e c0ac 3e3e
00000030: ce0e 103c 8325 97be c9f9 86be 8d49 423e
00000040: 2747 a3bb b390 09bc feb2 95bc 6e6c d0ba
00000050: 6d5b 71be dcdf 1b3e 56b6 ebbd 5f32 c63c
00000060: 0ee0 43bd 26be cb3d b9b1 153e c9dc aa3d
00000070: d62e 013e 138f 6c3e 9d63 41be 8d53 413d
00000080: b74d 173e 83ba 313d 557f 22be 9a35 08bd
00000090: d964 8dbe c168 a5bd 4c1a 2cbe b3e0 14be
000000a0: c77d dd3d c94e 01be 2ef2 993e 1e7f 743b
000000b0: 9f3b 8b3e 1eac 873e 3388 2dbd f8cf 42be
000000c0: 758d 253e b2df 25be 86a0 5dbe c3f1 ba3d
000000d0: d898 1f3e 154a ebbd e5ed 38be 0626 973e
000000e0: 8e56 94be 1bc6 f03d aa4d 8a3e 32c0 f5ba
000000f0: d3e0 893e 1c03 d13d 3a01 4ebe 04f5 5bbe
00000100: 32da 583e c35c 9a3d b780 3a3e c4df 88be
00000110: f382 98be 1cd1 9dbe 0717 3a3d 0b60 473e
00000120: 5c68 4b3e a27a d53d 8029 95be dfd2 94be
00000130: 07e5 9a3e 34c5 b93b ee5d 753e 0ab2 83be
00000140: 2fa2 a8bd eeeb c0bd 2954 82bd 0d56 a23c
00000150: e3f4 2fbe 9bb3 16be 6f50 043e 99c2 883e
00000160: e614 0ebe a2c1 783e 10bf 97bd ef91 26be
00000170: 4fc2 25be 3ecc 8dbe 1d8b 75be 10be 053e
00000180: 4c8c 5dbc 75cc 4a3d c6a0 83be 5a9d 10be
00000190: 3f1e 36be 43ac 4c3e 0b86 c1bd 71e5 37be
000001a0: 837f 233e ca06 8dbd 6e12 903e 0696 0bbe
000001b0: 6718 e33c dd8f 743e 03c2 1b3d 48bb bcb8
000001c0: 67ca 18bd 5acd 2b3e fc96 973e ad17 1a3e
000001d0: a65a e7bd 34e7 72be 049a 8dbe 0ccc 703e
000001e0: ce98 b4bd 6965 96be 3d8a 8abe 3cc2 a8bd
000001f0: c335 143c ce3f 8b3e 2b64 833c a0c8 0ebd
00000200: 59ea 1d3e 980d 673e b1fe 4c3e 2515 9cbe
00000210: fbc6 6cbe 66f8 fb3c 1ccd 7e3e 480b 213d
00000220: 82d2 453d ca56 8abe 11ac 5f3c e5fb e33c
00000230: e4f6 8c3e 97fe 4fbe a678 013e f5c0 203d
00000240: 7e24 443e b8cc 1dbe 1cf4 d43a b824 073e
00000250: 6d6f 89bd 3366 153e 48d1 573c d058 8c3e
00000260: 6caa a2bd 4677 1e3e 5e52 9dbe 5819 103d
00000270: 8214 043e 4e8e 1d3e 9aaf 47be 8d48 0ebe
00000280: 2b5d c13d e7f4 2e3d 3e98 123e ec36 533d
00000290: 2ce6 2a3e 0b11 7b3e b9c6 803e 8b87 753e
000002a0: 6f6b 7bbd c6b2 9abe 66f9 963e 1a62 1e3e
000002b0: ff1d aebd 80ea 653d 0b47 1b3e 918f 6cbe
000002c0: 268e 183e ae39 383e 327d 29be 207b be38
000002d0: d10a 29bd f36a 9c3d 2819 62bd f79a ddbd
000002e0: f255 9bbd 9890 15bd 980d 893e 6217 703e
000002f0: 330b 1f3d 3085 77bd b17e 623e a907 2d3e
00000300: 7729 82be 66e5 523e ea62 97be 061f a3bd
00000310: 3bd7 86be 3aea ed3d 2579 1abe cc2e 743e
00000320: 6c04 0d3e dc81 28be 49d3 9fbe befe 91be
00000330: 3635 463e 68a4 abbd 1db4 4f3c abbc 8d3e
00000340: 6e71 703e 3011 883e 7a50 103e a028 4cbe
00000350: 2dc8 9dbe 5906 1dbd 0e5d 88bd 62c1 eb3d
00000360: 830f 8c3e 5af0 dcbd c0c3 683e 4398 86bd
00000370: b436 8f3d 6778 42be 0f35 66bd 3890 9fbe
00000380: 6e62 3cbe 0b1e 6d3e cd61 15be 7edd b2bd
00000390: de4c 8c3e a48e 40be 4566 9bbe 8ba7 933d
000003a0: 90a8 163e d11a 73be 474f 77be d8c5 4dbe
000003b0: fe97 933d 1d3b 9abe 39c4 c53c 27ec 8e3e
000003c0: bd2d 573e eed4 8bbe 6cb8 373e 2db3 313e
000003d0: db4c 073e d044 5e3e 9b86 3a3e 1720 d8bd
000003e0: e4fd 543d d0ee 473e d9a1 a23b b3b8 5fbe
000003f0: a462 833e 4c78 e4bd a603 99bd 9e4f 9dbe
-0.25381598 0.0063791936 -0.1333267 -0.10156541 -0.29578337 0.11488849 0.25443584 0.1430076
0.099938564 0.21144034 0.20582645 0.18620586 0.008792592 -0.29520807 -0.26362446 0.1897337
-0.0049828473 -0.008396315 -0.018273827 -0.0015901455 -0.23570032 0.15222114 -0.11509387 0.02419394
-0.047821097 0.09948377 0.14618577 0.08342893 0.12615523 0.23101453 -0.18885656 0.04719882
0.1477574 0.043390762 -0.15868886 -0.033254243 -0.27616003 -0.08076621 -0.16806906 -0.14538841
0.10815006 -0.1262771 0.3006758 0.0037307213 0.27193925 0.26498502 -0.042366218 -0.19024646
0.16167243 -0.16198614 -0.21643266 0.09128144 0.15585649 -0.114887394 -0.180595 0.29521197
-0.28972286 0.117565356 0.27012378 -0.0018749295 0.2692934 0.10205671 -0.20117655 -0.21480185
0.21176985 0.07537224 0.18213163 -0.2673322 -0.29787406 -0.308236 0.045432117 0.19470231
0.19864029 0.10423781 -0.29133224 -0.29067132 0.3025286 0.0056692604 0.23961613 -0.2572177
-0.08234059 -0.0942 -0.063637085 0.019816423 -0.1718326 -0.14716952 0.12921308 0.26710966
-0.1387516 0.24292615 -0.07409489 -0.16266607 -0.16187404 -0.27694887 -0.23978849 0.13060784
-0.013522219 0.04951139 -0.25708598 -0.14122525 -0.17784975 0.19987588 -0.09449395 -0.17958619
0.1596661 -0.068860605 0.2813906 -0.13631448 0.027721597 0.23883004 0.03802682 -8.9994224e-05
-0.0373024 0.16777554 0.2960738 0.15048094 -0.11296587 -0.2372101 -0.27656567 0.23515338
-0.08818208 -0.29374245 -0.27058592 -0.08240172 0.009046021 0.27197117 0.016038975 -0.0348593
0.15421428 0.2256378 0.20019032 -0.30484882 -0.2312278 0.030758094 0.2488293 0.0393174
0.04829646 -0.2701934 0.013651864 0.027830074 0.27532113 -0.20311962 0.1264368 0.03924652
0.19154546 -0.15410125 0.0016247067 0.13197601 -0.06710706 0.14589767 0.013172455 0.2741151
-0.07942662 0.15475187 -0.30726904 0.03518042 0.12898448 0.15386316 -0.1950058 -0.13894863
0.094415985 0.042714026 0.14315888 0.05156605 0.16689366 0.2451822 0.25151613 0.23977487
-0.061381754 -0.30214518 0.2948715 0.1546711 -0.08501815 0.05613184 0.1516382 -0.23101641
0.14897975 0.17990753 -0.16551664 9.08284e-05 -0.04127008 0.076375864 -0.055199772 -0.10820573
-0.07584752 -0.03651485 0.26768184 0.2344642 0.03882904 -0.060429752 0.22118641 0.16897453
-0.2542226 0.20595321 -0.29567653 -0.079649016 -0.26336083 0.11616941 -0.15085275 0.23845977
0.13771218 -0.16455787 -0.31215885 -0.28514665 0.19356236 -0.083809674 0.01267722 0.27683005
0.2348077 0.26575613 0.140932 -0.19937372 -0.30816785 -0.03833613 -0.06658374 0.11511494
0.27355585 -0.10788031 0.22730923 -0.0657201 0.06992856 -0.18991242 -0.056202944 -0.31164718
-0.18396923 0.23155992 -0.1458809 -0.087336525 0.27402395 -0.18804413 -0.30351463 0.07209691
0.14712739 -0.23740698 -0.24151336 -0.20095003 0.072067246 -0.30123225 0.024141418 0.27914545
0.21013542 -0.2731089 0.17941445 0.17353506 0.13212912 0.21705937 0.1821541 -0.10552996
0.05199994 0.19524693 0.0049631414 -0.21847801 0.25661194 -0.11155757 -0.07471399 -0.30724806

DA_lstm_layer.encoder.encoder_lstm.bias_ih f4 [40]
00000000: 2353 a4bd e4cd 3bbc 10bd 553d b668 acbd
00000010: 949f 55be 1562 0ebc 7059 5abe 8dfc ebbb
00000020: abca 613d 8afe 183e 73fc 3ebe 4a29 3ebe
00000030: 8037 30be b243 fbbd e8b8 023c d78d 0fbd
00000040: 324c d83d a09b 03be 70b2 203e 2ce1 5ebd
00000050: a337 3abd 05de 0bbe 137f 83be 1fe9 923d
00000060: 88dd 7e3e d62e 803d d00c 5c3e 1515 7bbe
00000070: 70bb 573e ea99 11be 6bcd 173e 53e4 8dbe
00000080: f997 8ebe 12cb 9bbe 60e5 58be b89d de3d
00000090: 19b9 42bd 58b3 4fbd b9b2 8e3e 9efe 993e
-0.080236696 -0.011462662 0.052182257 -0.084184095 -0.20861655 -0.008690377 -0.2132318 -0.0072017373
0.05512492 0.14940849 -0.18650989 -0.18570438 -0.17208672 -0.12268771 0.007978655 -0.03504738
0.10561408 -0.12852335 0.15693069 -0.05441396 -0.045463216 -0.13658912 -0.25682887 0.071733706
0.24889195 0.06258933 0.21489263 -0.24519761 0.21067595 -0.1421887 0.14824454 -0.2771326
-0.2785032 -0.30428368 -0.2118125 0.10869926 -0.047539804 -0.050708145 0.2787073 0.3007707

DA_lstm_layer.encoder.encoder_lstm.bias_hh f4 [40]
00000000: c7be b63b 6885 40be 3347 973d 3258 f8bc
00000010: 94af c73d 422e ce3d 8927 1e3d e19a a13d
00000020: c78f 90be 976d 8abe 9b69 473e 1fa1 1b3d
00000030: efa2 3abe 42f4 16be 35d3 8b3e 8844 6e3e
00000040: 6fe4 90bd 6f91 1d3e 9d43 31bd 6719 49be
00000050: 4d85 eb3d 0479 1d3d 212a 6b3d 9bbb 383e
00000060: 57aa 203d fa62 29be 8c3e 6a3e 005f e13c
00000070: 1d5a 833e ba9f dabd 6bf4 1c3d 8350 d43d
00000080: 1ab3 713d 3e04 8b3e d07a c33c 9c69 51bb
00000090: 74a9 13be bdd5 853c 2a02 983d 1eb4 463d
0.0055769417 -0.1880089 0.07386627 -0.030315492 0.09750286 0.10067417 0.038611922 0.07890869
-0.28234693 -0.27036735 0.19473879 0.037995454 -0.18226217 -0.14741614 0.27309576 0.2326833
-0.0707482 0.1538751 -0.04327737 -0.19638596 0.115000345 0.038445488 0.057413224 0.18040316
0.03922495 -0.16541663 0.22875422 0.02751112 0.25654688 -0.10674997 0.038319033 0.10366919
0.059008695 0.27151674 0.023862273 -0.0031953817 -0.1442011 0.01633727 0.07422288 0.048511617

DA_lstm_layer.encoder.W_e.weight f4 [60, 20]
00000000: 8cb7 173e bdeb f4bd 719d c13d c84c f7bd
00000010: 37b3 b93d 5fdd 273d f55e 75bd 289d 0bbe
00000020: 8710 27be 3cff 183e d1e8 29be 7f79 4ebc
00000030: e132 ba3d fb1d 6fbd 15a3 3dbe 92df 5bbd
00000040: c09f 98bd 09b8 a03c dafe a9bd 8057 16be
00000050: 48a3 3c3d 9493 54be d417 96bb a059 563e
00000060: 3c40 31be 1fc2 403e 94bb 113e 7a87 50be
00000070: bfb7 98bd 4a72 91bb 147f 1e3e e608 1cbe
00000080: 1d5e a43d 4b43 b03d c21c 8abd 4dee 07be
00000090: 2c31 7fb9 09f9 d73c 8c76 b5bc 8f12 493e
000000a0: 5aac d13d 9595 203e 39c9 0b3e 15d4 32be
000000b0: ee11 8b3d 4a28 ffbd f6a6 92bc 979d 683c
000000c0: 3454 9ebd 7500 5ebe d2cd c63a 4f65 7b3d
000000d0: 8567 183e 3e96 133e d6c8 193e 0f51 033d
000000e0: 187b ca3d c448 b23d 76ea 223e c694 013e
000000f0: f349 0a3d 5e8b ba3d f890 06be 3a92 7d3d
00000100: 3824 22be e22d 44be dc4d 5abe b005 1c3e
00000110: a2a8 49bc 7952 a7bd 8e9c 08be 981c 1c3d
00000120: 0754 173e ed28 80bc b522 d93d 833a 99bd
00000130: d747 483e a2ae 243d 6afe de3d e582 543e
00000140: a7b4 47be 07e3 a53d d9a2 07bc 859a 303d
00000150: 075b c7bd b41e ecbd 036c 9d3d 4943 1dbd
00000160: 185a cd3d ddec 49be 2127 013e 4bce 03be
00000170: aaf4 4a3c 7642 0ebd 2ab7 0fbe a892 f53c
00000180: 5adf 033c f0f8 1aba d77f 293e a24c 9b3b
00000190: 928d 283e 3a71 f83d 470a 403e e1f2 c2bd
000001a0: 2f02 603d b33a eebd 53e2 05be f6d4 4b3e
000001b0: fd6e a1bc 7ef5 93bd 2da8 6cbd dcfd 2a3e
000001c0: d89e 223e 3b99 eebd 601c f6bd 9728 4b3e
000001d0: 9e02 87bd 0129 00bd ef9b 21be 533b 0a3e
000001e0: 555d 60be e6b5 083e e3c7 5dbe 3ce9 c03d
000001f0: 9f1e f13c 4a42 df3d 1fc8 47be 30bb 1cbe
00000200: 7924 48be bd94 38bd 30bf 9d3d b400 2abd
00000210: c0ad 683b 0277 b0bb c596 41be f61b 5dbe
00000220: c62a 1cbd 2e2f fd3d 010e 21be bad8 5cbe
00000230: 63ba f03d 198f 2fbe 8191 fabd 6e5d 48be
00000240: fd58 61bd 5232 bcbd 1bd4 e43d 7a9b 183e
00000250: f902 d7bd c686 8d3d ef8c e1bd 8d6c 293a
00000260: e390 70bd 8f86 1bbe 3243 323e c420 04be
00000270: adcf 68bd 94ab e23c 2d54 5a3e ecc4 b8bc
00000280: 99bb 60bd f636 203e 362b a1bd 3a19 5abe
00000290: 3c83 89bd c280 83bd c605 2c3c d5ea 383e
000002a0: 0662 9238 b53a 553c 82ff 923d c20c cbbd
000002b0: 39dc b33c 0de9 14be ec26 123e 005f 88bd
000002c0: d21f f8bd bd30 0e3e f117 473e 3806 583e
000002d0: 578c 553e 9f6a 0abe 0679 f5bd a4cb 40bc
000002e0: f3dd 053e d805 19bd f9d5 27be 8588 16be
000002f0: 18a5 913d f3cf cc3d 1182 5fbe 02fb 833d
00000300: 80da 533e 94ac b73d ec73 033e 4df7 07be
00000310: ce52 473e a091 4c3e ee46 053e 0ba0 8fbc
00000320: defa 77bd dd1a b73d b13b 87bd 53d0 cabd
00000330: 1e3d 02be 0155 37bd e9db 1cbd 0702 46be
00000340: 89c7 2dbe 0934 8e3d 659f b53d a0a6 c937
00000350: be9b 58ba 0bd5 37be 6f1d d0bc 4ed9 043e
00000360: 51e5 a1bd a157 5e3d 8f5e 14be 7817 f5bd
00000370: 14b8 f93b bf3c 98bd 4ae8 273e 2f25 0dbd
00000380: 89cb 073e f802 ecbc a9e8 93bd cf5c 02be
00000390: b1fe 913d 0640 253e d3d5 d2bc 34a2 643d
000003a0: cf15 f1bd f502 233e e113 01be 66fc 593e
000003b0: 79d3 6b3d 000b 0e3e 8144 1bbe 8f87 9b3d
000003c0: 7d84 8f3d e090 17be 55f1 a13d 5ad9 5f3d
000003d0: 5fe0 06be 507b 2bbe 3190 69bc 5e75 593e
000003e0: ad80 2bbe 9b9e e43d 1a6b 45be 7270 05be
000003f0: c058 283e 3fe3 1dbe 0c21 4bbe a641 5dbe
0.14816111 -0.11959026 0.09453858 -0.12075192 0.09067386 0.0409826 -0.05990501 -0.13634169
-0.16314898 0.14941114 -0.16592719 -0.012602209 0.09091736 -0.0583782 -0.18519242 -0.05368001
-0.07452345 0.019619005 -0.08300562 -0.14681816 0.046054155 -0.20759422 -0.0045804773 0.20932627
-0.1730966 0.18824051 0.14231712 -0.2036418 -0.07456922 -0.004438673 0.15478164 -0.1523777
0.08025763 0.08606585 -0.06743766 -0.13274498 -0.00024337013 0.026363866 -0.022151254 0.19635986
0.102379516 0.15682061 0.13650979 -0.17463715 0.06790529 -0.124588564 -0.017901879 0.014197729
-0.07730904 -0.21679862 0.001516754 0.061375912 0.1488324 0.14412782 0.15018019 0.032059725
0.098867595 0.08705285 0.15909752 0.12654409 0.03376193 0.091086134 -0.13141239 0.06190703
-0.15834129 -0.19158128 -0.21318763 0.15236545 -0.012308272 -0.08170027 -0.13340971 0.038113207
0.14778148 -0.015644515 0.10602323 -0.07481863 0.19558655 0.040205605 0.108883694 0.20753057
-0.19502507 0.08099943 -0.008278572 0.04311611 -0.09734159 -0.11529294 0.07686617 -0.038394246
0.1002695 -0.19719262 0.12612583 -0.12871663 0.012387434 -0.03473135 -0.14034715 0.029977158
0.008048857 -0.00059117284 0.16552673 0.00473936 0.16460255 0.12130971 0.1875392 -0.09518982
0.054689582 -0.1163229 -0.13074617 0.19905457 -0.019706244 -0.07224558 -0.057777572 0.16698402
0.15880907 -0.1165032 -0.12017131 0.19839703 -0.06592296 -0.031289104 -0.1578214 0.13499193
-0.21910603 0.13350639 -0.21658282 0.09419486 0.029433547 0.109013155 -0.19509934 -0.15305781
-0.19545163 -0.045063723 0.07702482 -0.041504577 0.0035503954 -0.0053852806 -0.1890517 -0.21592698
-0.03812673 0.123625144 -0.15727998 -0.2156705 0.117543004 -0.17144431 -0.12234784 -0.1956689
-0.055016506 -0.09189285 0.111732684 0.1490306 -0.10498614 0.069104716 -0.11013209 0.00064630137
-0.058731925 -0.15188049 0.17408445 -0.12903124 -0.05683868 0.027669705 0.21321173 -0.022554837
-0.054866407 0.15645966 -0.0786957 -0.21298686 -0.06714484 -0.06421043 0.010499423 0.18058331
6.980081e-05 0.013014485 0.071776405 -0.09914543 0.021955596 -0.14542027 0.1427266 -0.06658745
-0.12115444 0.1388578 0.19442727 0.21096122 0.20854317 -0.13517235 -0.11985974 -0.011767302
0.13072948 -0.03735909 -0.16390218 -0.14700516 0.07111567 0.10000601 -0.2182696 0.0644436
0.2068882 0.089684635 0.1283719 -0.13277932 0.19465181 0.19977427 0.13015339 -0.01753237
-0.06054198 0.08940671 -0.06603182 -0.09903016 -0.12718627 -0.0447588 -0.03829566 -0.19336711
-0.16970648 0.06943519 0.08868293 2.4038658e-05 -0.00082629535 -0.17952363 -0.02540466 0.1297352
-0.07905067 0.05428279 -0.14489196 -0.11967367 0.007620821 -0.074334614 0.16397205 -0.03445929
0.13261236 -0.02881001 -0.07222111 -0.12730716 0.07128657 0.16137704 -0.025736725 0.05581875
-0.11771738 0.15919097 -0.1260524 0.21287689 0.057574723 0.13871384 -0.15162851 0.07594215
0.07007692 -0.14801359 0.079073586 0.054650642 -0.13171528 -0.16746259 -0.014255569 0.21236178
-0.16748305 0.11163064 -0.19279137 -0.13031176 0.16440105 -0.15418719 -0.19836825 -0.21607074

DA_lstm_layer.encoder.W_e.bias f4 [60]
00000000: b3e5 28be 8488 c23d 3805 84bd e94b 903d
00000010: 5b4a f9bd e60f 6c3c 4270 60bd 752d 503e
00000020: 8dc1 5dbe 5cad e2bb 6195 9d3d 71f4 f43d
00000030: 5f1e 76bc f8e6 4dbe b660 6dbd e438 1f3e
00000040: 9154 d7bd b02a 943d b82b 25bc 8b58 603d
00000050: 9eee 0dbe de7e 963c 586c 333e 1647 01be
00000060: a37f 593a 82a1 313e 73fc 7c3d 2695 a6bc
00000070: 291f 54be 5616 8fbd d3cb c33d aa1d e73c
00000080: 1eaa 4c3e 4f97 9cbd 52df 48be 2a17 55be
00000090: 593e e0bc 1b5c 2ebe 2fd2 1d3e 7961 02be
000000a0: fa46 143e 5103 4cbd 6413 3f3e 53ec 8f3d
000000b0: 97b4 acbd 43a7 023b bc68 303e f24b e8bd
000000c0: 8a6e acbb 02b6 613d ab00 0a3d 0081 503d
000000d0: 02c5 3f3e 5d5e 363e 1012 fdbd 208f e13d
000000e0: c431 9fbd 58af 3d3d 9d35 713d 6526 073e
-0.16493873 0.094986945 -0.06446308 0.07045729 -0.12172385 0.014408087 -0.054794557 0.2032984
-0.21655865 -0.0069176387 0.076945074 0.11960686 -0.0150218895 -0.20107639 -0.05795356 0.15549046
-0.10514177 0.072347045 -0.010081224 0.05477194 -0.13860556 0.018371042 0.17521799 -0.12624773
0.00082969124 0.17346767 0.06176419 -0.020334791 -0.20715012 -0.06986682 0.09560361 0.028212387
0.1998677 -0.07646047 -0.1961644 -0.20809618 -0.02737348 -0.17027323 0.1541221 -0.12732495
0.144802 -0.04980785 0.1865974 0.07027497 -0.08432882 0.0019936122 0.17227453 -0.113426104
-0.0052622007 0.055105217 0.033692043 0.050904274 0.18727496 0.17809434 -0.12356961 0.11013627
-0.07773164 0.0463098 0.05888902 0.1319824

DA_lstm_layer.encoder.U_e.weight f4 [60, 60]
00000000: c836 ad3d 11a2 fdbc 3a89 d3bc 809a 85bd
00000010: 5be8 993d 1ae7 7bbd 3fa7 c7bd e03f cb3d
00000020: 0f0c 95bd 8009 acbd f3fd 8a3d 4297 f7bd
00000030: 683c 99bc 151e c03a fee2 76bd d8f1 943d
00000040: 5027 b23d b800 fd3c 10a9 f13d b34d cebd
00000050: c456 f3bd 41dc 0abd bb7d d4bb 7c71 e23d
00000060: d376 39bd f752 a53c 8aa4 61bc 374b 5c3d
00000070: b210 5f3d 1778 dcbd ec1a 52bc cad2 a5bd
00000080: b907 d5bc dd6e 4dbd ef83 633d d411 97bc
00000090: e70f ce3c d28b 57bd a6bd 303c 4cc0 e13d
000000a0: 7af6 19bc 622c 90bb 073d 82bd 45c5 2a3c
000000b0: 044b 173c ee84 0dbd 384d ba3d 5ab7 dc3c
000000c0: eacd 97bd ee16 853d cace 903d 86b0 b2bc
000000d0: 1c68 8f3d d7d5 ed3d b946 ebbd e0b4 6bbd
000000e0: 3547 76bd 2eea ffbc 4d97 f43d 621f e03d
000000f0: 3fe2 f93d fb26 42bd 8af1 e83d 3e19 fabc
00000100: 2c27 6d3d f7da f2bc f0db a93d a794 d2bd
00000110: 21a2 6f3c f4fd a23d 71d8 573c 9e5d 983c
00000120: 56c0 f53c b894 793d 89c8 9e3d 220c f0bd
00000130: dfc8 da3d a2f7 95bd c633 7a3c 7c2b 773b
00000140: 4b76 68bd f7b5 b2bd bb28 a73d 2fb0 1d3d
00000150: 2a79 603c d078 e6bc 5fa2 fdbd 4b77 e7bd
00000160: e279 fbbd ebe0 d6bd 7d5e 9a3d 44fd ff3b
00000170: 1f0a 5cbc 1e3d 2ebd 88c1 ee3d bb5b f8bd
00000180: 0010 4cbc 597f 96bc d7d5 edbc a61a e9bd
00000190: 1e96 fabd 0d53 f63d b07e f7bc a5e8 f33c
000001a0: 8612 9d3d 9d31 00bc 16e3 9c3c 69fd ebbd
000001b0: 150c 90bd 9988 51bd a832 c83c abbf bdbd
000001c0: 5259 f63d f56e f4bd 4649 64bb a5b3 413d
000001d0: 2e41 35bd 9a6a 13bd 5162 b93d 2a60 9cbd
000001e0: 823b 77bd 2950 2a3c bf04 f0bd 4f0e d6bd
000001f0: a197 e13d 6ef7 b83d 92d4 aa3d 152b 65bd
00000200: fb3a 28bd 0242 f7bc 7ec1 303d 18ed 25bd
00000210: cbe2 8e3d b697 c93d fd5c f53d 9a4e 4ebc
00000220: beb3 183b a42f 113b 6c4b debc af4d 9c3d
00000230: b0ed 0a3d 8d32 3bbd 2fb5 7f3d bec5 2f3d
00000240: 453f 933d 119e aabd 2028 a13d 0cef 97bd
00000250: d49a da3d 451f dfbb 57ff 6fbd 76bb c73d
00000260: f103 e5bc f53e c23c fcbd bd3c 7b3e edbd
00000270: 5e09 b3bd 0552 a2bd 4d90 9a3d d587 b53d
00000280: c402 bbbd 3815 b2bd e576 8fbd ffb8 be3d
00000290: f565 acbd c893 4a3d d529 fcbd 14bb 1a3d
000002a0: c929 f53d 0cba ee3d 80f8 f6bd 9d06 a2bd
000002b0: 3296 4ebc a01f 3d38 05af 2b3d 833b 77bd
000002c0: c3b7 8cbd 1168 44bd 0f7b efbb be40 d1bd
000002d0: 8cc9 ee3a c438 f3bd ef0e 0ebd f5a7 dcbd
000002e0: ba2e be3d c706 023d 0179 813d 3a29 d6bd
000002f0: 3b3a 9abd 493a ebbd 145f 9e3d 14b6 82bd
00000300: d86c 5a3c 36bd bbbc 6594 7dbd da12 f23b
00000310: 28e6 b5bd e7e8 07bd b660 1e3d 93c3 f4bb
00000320: 16d5 1f3a 9276 92bd fa6d 24bd 1195 02bd
00000330: 2021 8ebd a806 d13d e3ba d1bd 516a 893d
00000340: 867b 90b9 1981 c63b 38b7 a4bd b4e1 9cbd
00000350: f00d 8e38 e804 813d 888f d73b dcc6 d93b
00000360: 06a1 ff3d b764 96bd b419 00be b530 95bc
00000370: 1aa7 6d3c 7292 0ebd a4db b43d 141e d33b
00000380: 8de5 92bd edce a3bc 5f0d 11bd 689f 76bb
00000390: c8d1 ba3d e1e0 9abd 655d 403d 2a71 b6bd
000003a0: d732 b93c b29d 243d 86f8 203d 300d 333d
000003b0: 0511 58bd 28a9 963d 8a35 14bc d967 9f3d
000003c0: e213 3f3d b03b aa3d 8d06 eabc 0877 783c
000003d0: 2d4e a13c 2f14 423c 4411 c8bd 9a60 df3c
000003e0: 9a7f db3c 0a69 dcbd fa63 e1bd 4f3a 46bd
000003f0: 985e 2abc bbc6 043d e077 0239 cecb 353d
0.08457714 -0.030961068 -0.02582227 -0.06523609 0.075150214 -0.061499692 -0.097486965 0.099242926
-0.072776906 -0.084002495 0.06786718 -0.12089397 -0.018705562 0.0014657403 -0.06027507 0.072726905
0.086989045 0.030884132 0.11799824 -0.10073414 -0.118817836 -0.033901457 -0.006484715 0.11056802
-0.045279335 0.020181162 -0.013772139 0.053782668 0.05445928 -0.10765093 -0.0128238015 -0.080968454
-0.026004659 -0.050154556 0.055545744 -0.018441118 0.025154067 -0.052623577 0.010787403 0.11023006
-0.0093971435 -0.004399822 -0.06359296 0.010423009 0.009234194 -0.0345506 0.090967596 0.026942898
-0.07412322 0.06498514 0.07070692 -0.021812689 0.07002279 0.11613052 -0.11488099 -0.057545543
-0.060126502 -0.031239595 0.11942921 0.10943486 0.12201356 -0.047400456 0.11374195 -0.030529615
0.057898685 -0.029645426 0.08293903 -0.102822594 0.014626057 0.07958594 0.013174162 0.018599328
0.02999894 0.060932845 0.07753093 -0.11721064 0.10682844 -0.07322623 0.015271133 0.0037715128
-0.056753438 -0.08726113 0.081620656 0.0384981 0.013700763 -0.02813378 -0.123844855 -0.1130205
-0.12279107 -0.104921184 0.075375535 0.007812174 -0.013430147 -0.042538755 0.11658007 -0.12126871
-0.012454987 -0.018371271 -0.02903263 -0.11382036 -0.12235664 0.120275594 -0.030211776 0.02977402
0.07669549 -0.007824329 0.019151252 -0.115229435 -0.070335545 -0.05115566 0.024438217 -0.092650734
0.12028755 -0.11935226 -0.0034833713 0.047290463 -0.044251613 -0.035990335 0.090519555 -0.07635529
-0.060359485 0.010395088 -0.11719655 -0.10451948 0.11015249 0.090315685 0.08341326 -0.05594929
-0.041071873 -0.030182842 0.04315328 -0.040509313 0.06976851 0.0984339 0.11980627 -0.012591982
0.0023300494 0.002215364 -0.027135573 0.076320045 0.033918083 -0.045702506 0.06242865 0.04291319
0.07189802 -0.0833093 0.07868981 -0.074186414 0.10674062 -0.0068091475 -0.05859312 0.09752552
-0.027955981 0.02371166 0.02316188 -0.11584183 -0.08742021 -0.079258 0.075470544 0.088637985
-0.09131387 -0.086954534 -0.07005099 0.09312629 -0.08417884 0.04945734 -0.12312666 0.037776068
0.119708605 0.116565794 -0.12059116 -0.07911418 -0.012609052 4.5090565e-05 0.04191496 -0.06035949
-0.06870987 -0.047950808 -0.007308371 -0.10217427 0.0018218025 -0.118760616 -0.03468221 -0.10774223
0.09286256 0.031744745 0.06321908 -0.10457082 -0.07530638 -0.114857264 0.077329785 -0.06382385
0.013331614 -0.022917371 -0.0619091 0.007387501 -0.088817894 -0.033181097 0.03866645 -0.0074696033
0.0006097121 -0.07151522 -0.040143944 -0.031880442 -0.06939912 0.10206348 -0.10240724 0.06709731
-0.00027557852 0.00605787 -0.08042759 -0.07660237 6.773684e-05 0.06299764 0.0065783896 0.0066460203
0.12481885 -0.073434286 -0.12509805 -0.018211702 0.014505172 -0.03480763 0.088309556 0.0064427946
-0.071726896 -0.01999613 -0.035413142 -0.0037631635 0.09122044 -0.075624235 0.046964068 -0.08908303
0.02260725 0.040189452 0.03929951 0.04371375 -0.052750606 0.07356483 -0.009045968 0.07783479
0.04664982 0.08312166 -0.028567577 0.015165098 0.019690597 0.011845632 -0.09768918 0.027267743
0.026794244 -0.10762222 -0.11005397 -0.04839545 -0.0103985295 0.032416087 0.00012442423 0.044383816

DA_lstm_layer.encoder.v_e.weight f4 [1, 60]
00000000: cbaa c63d 8bab 853d ade5 aebd 657e 00bd
00000010: 20bb cd3d f088 cf3d 6cf7 f8bd 9079 35bd
00000020: 5f3f 87bd 4818 05bd 4782 6cbd 52bd e53d
00000030: 2786 cebc 68ec e73d abf5 aaba 97cd f03d
00000040: f1cd fdbd 1db0 fa3d afd3 70bd 67ce 9cbd
00000050: b832 913c d30f f7bd 4070 033d 3691 aabc
00000060: 5896 b43c 4231 3fbd 8f53 e7bd 629a d7bd
00000070: ebc2 f13d 502d 483d 7e22 9cbd 539c bf3d
00000080: 12cb 9b3d c656 c13d 353b db3d f5ad dabd
00000090: c52b d33d 89d8 a83d b446 cabd e402 b13d
000000a0: ea96 0abc c567 8fbd b1f9 8fbc 1ad9 d93d
000000b0: e127 993d 94fb 8e3c e869 fe3d 0cae 58bd
000000c0: fbf7 fd3c 4994 c3bc ac25 f4bd f987 c9bd
000000d0: 4913 11bd 1499 01bd 1734 f6bd 13ad 233c
000000e0: 0d43 4c3d 645d d3bd 4d8e 203d a773 4fbd
0.09700545 0.0652686 -0.08539901 -0.03137054 0.10045457 0.10133541 -0.12156567 -0.044305384
-0.06603884 -0.03249386 -0.05774143 0.112177506 -0.025210453 0.11324388 -0.0013043185 0.11757963
-0.12392796 0.12240622 -0.058795627 -0.076565556 0.01772438 -0.12063565 0.03208947 -0.020821195
0.022044346 -0.046677835 -0.112952344 -0.10527493 0.11804756 0.04887134 -0.07623766 0.09355988
0.07607092 0.09440379 0.10704652 -0.10677711 0.10311083 0.08244426 -0.09876767 0.086431295
-0.008458832 -0.07002214 -0.017575117 0.10637112 0.074783094 0.017453946 0.12422544 -0.05290036
0.031002035 -0.023874419 -0.11921248 -0.09840388 -0.035418782 -0.031640127 -0.12021654 0.009989995
0.049868632 -0.10320547 0.03919821 -0.050647404

DA_lstm_layer.decoder.decoder_lstm.weight_ih f4 [40, 1]
00000000: c19e ed3c 597e 203e 5590 af3c 907c 1ebe
00000010: 9bfa 9b3d bfab dd3d 23e6 9b3e 331d 3fbe
00000020: 9011 60bd 79f4 6ebe 9078 693e db2d 3abd
00000030: 3d4f 01bc b9d3 993e 5df8 9f3e 8131 e33d
00000040: 5944 a63d a0dd 933e 4642 553e 4084 143e
00000050: 21ee 00be d623 03be 1fb7 833e 45cf 0d3e
00000060: e9b0 903e ac78 4f3e e94e 1dbe 0e84 c13d
00000070: d69a f33d b124 90be 12b3 6abd 46a3 4e3d
00000080: a101 7bbe 4c4b 9fbe b4df 053a ed7d 54be
00000090: 8180 9e3e 79ec 85be 7e66 adbd 365a c3bc
0.029006364 0.15673198 0.021431128 -0.15477204 0.076161586 0.108237736 0.30449018 -0.18663482
-0.05470425 -0.23335446 0.22799897 -0.045453887 -0.007892427 0.30044344 0.31244174 0.110934265
0.08118505 0.28880024 0.20826063 0.14503574 -0.12590839 -0.12806639 0.25725648 0.13848598
0.28259972 0.20260876 -0.15362133 0.094490156 0.11894767 -0.28152993 -0.05729968 0.05044868
-0.2451234 -0.31112134 0.0005106882 -0.20751162 0.30957416 -0.26156977 -0.084668145 -0.023846727

DA_lstm_layer.decoder.decoder_lstm.weight_hh f4 [40, 10]
00000000: 12a3 7dbe 09a1 56bc 758f 883e 708e 81be
00000010: 5dd8 833e e84f c53d 634b 2fbe a586 8f3d
00000020: d350 44be 6425 fa39 2576 0c3e d1d1 4e3e
00000030: c7dd 973e cbd6 51bd d0bd 9b3e 70bc 48bd
00000040: 7026 25be b245 813e e24b 5ebe 211d f5bc
00000050: d774 7fbe 1902 efbc ab3a 81be 6808 1ebd
00000060: 6c51 babd 1faf 5fbd d22b 11be 9e32 5ebd
00000070: a08d 97be 1e8d 9cbd dca4 043e 52ae 953e
00000080: 46ac 6cbe a3d9 5ebe 35c5 993d abac 1ebe
00000090: 3b13 8bbe 1dbb 963e b4ce 9cbc 7aeb 633c
000000a0: d7ec 633d 852a f83d af46 97be 6ff5 4e3e
000000b0: 0163 27be dcf0 ec3c 555f 8c3d 0e8f fdbd
000000c0: 153b 1dbe 8b7e 64bd b07e 6c3e 67b4 81bb
000000d0: b303 6d3e fed2 cc3d 7f86 85be 03dd 52bc
000000e0: c273 5cbe 63f5 823e 50f1 84be ca60 05be
000000f0: e6ae 873e 0840 963d 7ae8 6d3e 7709 00bd
00000100: 3df6 843e 4013 ffbd 233f 593e 1eeb 3e3d
00000110: ca0b 633d 1dc4 f23d 816a 433e 1e8a 68bd
00000120: 3c5f 893e 7ccf 80be a7e3 e3bd 794b 47be
00000130: 7051 9e3e 56b4 9f3e 3924 11be afc2 60be
00000140: 44e7 1d3e 9f66 4ebd 0e4d 81bd a871 7abe
00000150: dc7b 8bbe 0a0c 86be e16b 493c 5784 93bc
00000160: ba27 22be 4f15 7a3e c2d6 d03c aacc e2bd
00000170: 4a01 333e d80c 28be aa4d 333e 4bf1 5dbc
00000180: ec29 f9bd a0fa e4bd c574 3d3e 8ddf 88be
00000190: 5c5b 3c3e 0011 1c3e 734e 2bbe 137c 94bd
000001a0: 292a 0bbe 1397 73be 012f 05be 3c91 65bd
000001b0: 2ae4 9cbe e2bf 513e 8cfa 43be a252 88bc
000001c0: 978b 40be 4a24 70be 46bb 69bc 1177 2bbe
000001d0: 3d7d 68be be35 873e ba08 fb3d 671d a33d
000001e0: 7543 10be b01b 9a3e d898 183d 31cb 393e
000001f0: e4f5 0bbe d34d 0abe 35e4 c5bc 0394 ba3d
00000200: 69de 3bbe 14e8 00be 8a16 7b3e c1f9 813c
00000210: b75c 4d3d d179 383d 5ca6 183e 98e2 ec3d
00000220: dd58 903e 612d 583e b593 8a3e fbe0 093d
00000230: daff 803e 0667 8b3e 4fd2 843d 364d 373e
00000240: 7a85 9e3b 74b7 05be a517 e93d 6c4f 91be
00000250: 123a 02be 76e4 723e f28c 9e3e 7134 15be
00000260: 757a 2dbe f0aa 75be 2bba 6b3e 9829 c0bd
00000270: 6952 43be faa6 fbbd fc3f 9abc 533b 0abe
00000280: 6b09 273d 501f f73d dade e6bd ee60 8bbe
00000290: 2462 08be 66ee 6d3e 4782 00be 14ed 12be
000002a0: 0de4 7abe ffc6 a2bd 45c2 67be e852 69bd
000002b0: eef3 9bbe d032 983e 7fd4 5bbd 284e 8c3d
000002c0: f84a b93b 0277 f3bd f983 8d3e 4989 c53c
000002d0: 1964 b9bd 6167 7f3e a6cf 2b3d 0364 dabd
000002e0: 3966 5f3e f873 1bbe b87e 3a3e a627 183d
000002f0: 3016 c7bc 5cdb 4fbe cb8a 3fbe 6904 323e
00000300: 444b df3d 5c96 04be d7e0 6dbc 8e50 c4bd
00000310: e836 9e3e 8e89 333d 9d65 41be d085 10be
00000320: 8778 3cbe f97f ae3d 5b04 c73c 2f76 393e
00000330: aa2c 563e d22d 1c3e 50aa d5bd 1d28 403d
00000340: d872 9dbe 90d2 66be e414 b63d 0750 50be
00000350: 1b19 b0bc 35b7 11be 3a92 c7bd d4d3 6bbe
00000360: 9c89 15be fabc 8abe a2db 45be 3526 ab3d
00000370: b12a 253e 762d 063e 7361 5d3e 4fc6 6abd
00000380: 932a 9abe 2a11 07be 7488 35be 7c13 2dbe
00000390: 7b35 2dbd 4d28 613e 1f83 79be 4a4d 87be
000003a0: dccd 263e 6151 413e 45b9 333e 6a0e 803e
000003b0: f98e 773e 37bc 0abd 0f14 813e ff74 a9bd
000003c0: bc94 613b 6ded 7ebe 1123 823e 3fc3 cb3d
000003d0: 3b56 1abe a725 a03e 19e8 30be e9db 37bd
000003e0: 71f2 9e3e 7ee8 7cbd ba34 99be 804b 83be
000003f0: 58a9 2e3e 97fb 013e 370a a3bd 8227 5c3e
-0.24769238 -0.013099917 0.2667195 -0.25303984 0.2575101 0.096343815 -0.17118602 0.07008103
-0.19171457 0.00047711574 0.13716944 0.20197226 0.2966139 -0.051230233 0.30418253 -0.049007833
-0.16127944 0.25248486 -0.21708634 -0.029921116 -0.24946915 -0.029175805 -0.25240073 -0.038582236
-0.09097561 -0.054610368 -0.14176872 -0.05424749 -0.2960024 -0.076441035 0.12953514 0.29234558
-0.23112592 -0.2176271 0.075083174 -0.15495555 -0.2716311 0.2943963 -0.019141532 0.013911122
0.05564579 0.12117485 -0.29546115 0.20210813 -0.1634636 0.028923444 0.06854121 -0.12380801
-0.1535457 -0.055784743 0.23095202 -0.003958273 0.23145942 0.10001181 -0.26079175 -0.012870076
-0.21528533 0.2557784 -0.25965357 -0.13025203 0.26500624 0.07336432 0.23233214 -0.031259026
0.25969115 -0.124548435 0.21215491 0.046610944 0.055431165 0.11853812 0.19083597 -0.056772344
0.2683047 -0.25158298 -0.111274056 -0.19462384 0.30921507 0.31192273 -0.14173974 -0.21949266
0.15420252 -0.050390836 -0.06313525 -0.24457419 -0.27242935 -0.2618106 0.012293787 -0.01800744
-0.15835467 0.24422191 0.02549303 -0.11074193 0.1748096 -0.1641115 0.17510095 -0.013546298
-0.12166199 -0.111806154 0.18501575 -0.26733056 0.18394226 0.1524086 -0.16729145 -0.07250228
-0.13590302 -0.23788099 -0.13006212 -0.05604671 -0.30642825 0.20483354 -0.19138545 -0.016640965
-0.1880325 -0.23451343 -0.014265841 -0.16744639 -0.22704025 0.2640819 0.12257524 0.079645924
-0.14088233 0.3009925 0.03725514 0.18143918 -0.13668019 -0.1350625 -0.02415667 0.09110262
-0.18346561 -0.12588531 0.24520317 0.015866162 0.050137248 0.04503805 0.14907211 0.11566657
0.28192797 0.2111106 0.27065817 0.033661824 0.251952 0.27227038 0.06485426 0.17900547
0.004837689 -0.13058263 0.11381463 -0.28380907 -0.12717465 0.23719963 0.30966908 -0.14570786
-0.16941245 -0.23990989 0.23020236 -0.093829334 -0.19074406 -0.122877076 -0.018829338 -0.13499193
0.040780466 0.12066519 -0.11272974 -0.2722239 -0.13318688 0.23235473 -0.12549697 -0.1434825
-0.24501057 -0.07948112 -0.22632702 -0.05696383 -0.3045954 0.29726267 -0.05366945 0.068508446
0.005654689 -0.11887933 0.2763975 0.024113314 -0.09052295 0.2494178 0.041946076 -0.10663607
0.21816339 -0.15180957 0.18212402 0.037147187 -0.024302572 -0.20298523 -0.18705289 0.17384495
0.10903028 -0.12947983 -0.014518938 -0.09585677 0.30901265 0.043832354 -0.18886419 -0.14113545
-0.18405353 0.085205026 0.024294069 0.1811149 0.20915475 0.15251854 -0.10432875 0.046913255
-0.3075168 -0.2254126 0.08890703 -0.20343028 -0.021496346 -0.14230044 -0.097446874 -0.23030025
-0.14603275 -0.27097303 -0.19322065 0.08356897 0.16129567 0.1310328 0.21619205 -0.057318028
-0.30110607 -0.13190141 -0.17727834 -0.16901964 -0.04228733 0.2198803 -0.24366425 -0.26426154
0.16289467 0.188787 0.17551143 0.25010997 0.24175633 -0.033870902 0.25210616 -0.08274268
0.0034420928 -0.24895258 0.2541738 0.099493496 -0.15071957 0.31278726 -0.17276038 -0.044887457
0.31044343 -0.06174516 -0.2992304 -0.2564354 0.17056787 0.1269363 -0.07960933 0.21499446

DA_lstm_layer.decoder.decoder_lstm.bias_ih f4 [40]
00000000: 20fd 983d c5ce 3c3e 01d0 3fbe 16ab 603e
00000010: 435a 4c3e 920d 2c3e 6225 dabd f1c9 7a3e
00000020: d573 aabd d303 053e 50d6 67be c15f a3be
00000030: c8e2 873b 1f04 633e 55f6 dd3d efd1 853e
00000040: 9b37 a83d 3d47 8bbe 1cc7 7abd 4e80 03be
00000050: d518 f1bc 2288 8dbe bef7 d53d 631a 893e
00000060: de77 663e 01e5 73bc 3e52 013e 2c04 ce3d
00000070: 9e31 2e3c 015b 2fbe e429 513e fde0 263e
00000080: 10d6 85be 209b 6d3e a93a 623e cfb3 393d
00000090: 2c63 58be 3886 44be ee86 4abe 7ce5 59be
0.07470155 0.18438251 -0.18731691 0.21940264 0.19956307 0.16802052 -0.106516615 0.24491097
-0.083228745 0.1298974 -0.22640347 -0.31908992 0.0041469075 0.22169541 0.10838 0.2613673
0.08213731 -0.27202788 -0.06122504 -0.12841913 -0.029430786 -0.27642924 0.10447644 0.26777944
0.22506663 -0.014886142 0.12629029 0.100593895 0.010631947 -0.17124559 0.20426136 0.16296764
-0.2613988 0.23203707 0.2209269 0.045337494 -0.21131581 -0.19191825 -0.19778034 -0.21278948

DA_lstm_layer.decoder.decoder_lstm.bias_hh f4 [40]
00000000: 60ad 0e3e 8907 86be 84a9 13be 5f99 0cbb
00000010: 9799 27be 8114 9fbe b752 bd3c cf9a 4d3d
00000020: 800c 8b3e af9a 7a3e 2465 803e a942 9a3e
00000030: 7dc5 823e 796a 5cbd 36ca 9a3e 58ad d23c
00000040: f63f 613e 6f72 46be 6c41 013d e771 ff3d
00000050: b16e 233e a8b2 a83d e715 9f3e 8935 7abe
00000060: 31c0 ae3d bd2f 203e 587c 82be fd15 50be
00000070: 463d 143e 5236 d33d d46f 9abe bb33 bdbd
00000080: a0a9 9a3d 5081 7d3e 5e36 883d f633 44bd
00000090: 09bb 0d3e 3ace 1b3e 8d8b be3d d976 8b3e
0.13933325 -0.26177624 -0.14420134 -0.002145372 -0.16367184 -0.3107033 0.02311073 0.050196465
0.27157974 0.2447307 0.25077164 0.30128983 0.25541297 -0.053812478 0.302324 0.025717422
0.21997055 -0.1937959 0.03155653 0.12472897 0.15960194 0.08237201 0.31071398 -0.24434485
0.08532751 0.1564321 -0.25485492 -0.20320888 0.14476499 0.10313095 -0.30163443 -0.092383824
0.07551885 0.2475636 0.06650995 -0.047901116 0.1384088 0.15215388 0.09303961 0.2723911

DA_lstm_layer.decoder.W_d.weight f4 [10, 20]
00000000: ec1c 45be 6027 cb3d 17b1 fd3d f954 ebbd
00000010: aa3c 103e 1392 223e 0f8b 1c3e f3dc 98bc
00000020: 500b f8bd a6b2 b03d d4b8 303e d567 9fbd
00000030: 127c e83c c52c b03c e720 e33d 0e03 03be
00000040: da2e 3abe c2b6 1e3d 8b1b 0fbd 6393 35be
00000050: ae50 4b3e e90b 023e 5c9f b23d 4b6e 3abd
00000060: 8fd5 ad3d eb8e c6bd 1359 90bd 61c1 3f3e
00000070: 29a8 bc3d 4f64 fc3b c695 9d3d 1030 1a3e
00000080: c099 47be d134 edbd 763e b93a 2f4d 1d3d
00000090: 9901 c13d 1afa cabd c43d d83d 716f 1c3e
000000a0: 801b 9bbd 846c 023c 5ebe 0a3d 6114 2ebe
000000b0: 66ff 8a3d b7ef f1bd b471 15be bdd3 29be
000000c0: 87b8 20bd 3766 1abe e810 473c 36b7 b5bc
000000d0: d324 0e3e bbbd 123e 7427 fe3d a88d 27be
000000e0: 280c f1ba 301b 99bc 7be9 f03d 4aef 8c3d
000000f0: 4919 e2bc ba9c d13c 6268 d7bd 3eec 32be
00000100: da64 debc b27f 15be a514 6c3d 1b06 003e
00000110: bbed 10be da42 f83d 1367 b4bc ef37 12be
00000120: 0378 343d 1ce0 65bd f053 26be e847 58be
00000130: 2772 133d 03c2 5abe 00da 533c 9b87 c33d
00000140: 7a37 eebd 04cb 08bd d91c 5f3e 010a 7bbd
00000150: 307f 323e 1a4a f13d 89f3 1a3d cc4e 75bd
00000160: c008 b7bc 529e 503c 306b e1bd 7128 0c3d
00000170: a362 d03d 8009 32be 760a b9bd 2ed1 fa3d
00000180: 67e1 11be b255 5cbe 90a0 44bd 5288 c13d
00000190: bbaa 413d 6618 323e d3e9 5ebd 548d dabd
000001a0: 7e1d 783d 1056 c8bd cbdc e13d 9555 e33d
000001b0: f570 1e3e 94f2 20be c689 d2bd 402b 563e
000001c0: d395 383e 4ea4 46be d940 9f3d 85c3 02be
000001d0: 057f edbd 1ace c33d 33e6 5abd a999 e7bd
000001e0: 2ba8 243e e50d 563e 79b7 c13c 43d4 4ebe
000001f0: c4d2 16bc 608b 263e 6747 d3bd 67aa 30bc
00000200: 6613 2cbe 56fb 00be e86d 83bd ace8 41be
00000210: e460 59be b951 8e3d 6951 b5bd a2f1 36bc
00000220: 9210 22be 5042 583e f406 bdbc b1e2 713d
00000230: 533e e6bd d6f2 473e 817f 02be de42 3c3e
00000240: 83be acbd 2438 493e 67da 5abe 6495 7539
00000250: a564 35be 2d5b 863d dc86 2f3d 3979 023e
00000260: 031b 323d 3dbf 20be 5263 cc3d 3c5a 063e
00000270: 3d00 2c3c c0c6 cfbd 79f5 fb3d 6521 c9bd
00000280: fd76 193d a222 773a 7502 56be 244b d23c
00000290: 913f b33d 3a5c 04be 72de 8cbd ca2d 5dbe
000002a0: 84d2 5b3c ee5a 293e 93f6 8dbd eb0d 0e3e
000002b0: 1e54 a43c e2aa 4abe 51e1 a13d 0fe1 6bbc
000002c0: dd3f f2bd 6c5c 84bd 4213 643d b332 ce3c
000002d0: d791 2c3e 352f 2abe c948 2cbe 4a37 043d
000002e0: 4108 91bd d655 463d 73a5 fd3d ea81 57be
000002f0: e7b8 70bd be93 23bd 1d9d 3f3e 5a52 3c3e
00000300: 0293 0e3e cdc5 b4bd 2f33 17be 318f a3bd
00000310: 92b5 2cbe cd0d f63d fa90 28be 4fd8 11be
-0.19249314 0.099196196 0.12387293 -0.114908166 0.14085642 0.15876035 0.15287422 -0.018660044
-0.12111533 0.086278245 0.17258006 -0.07783476 0.028379474 0.021505723 0.1109026 -0.12794134
-0.18181935 0.03874851 -0.034938376 -0.17732005 0.19854996 0.12699856 0.08721802 -0.04551534
0.08487999 -0.09695228 -0.070482396 0.18726112 0.092117615 0.0077023874 0.07694583 0.15057397
-0.19492245 -0.115823396 0.0014132995 0.038403686 0.09424133 -0.09910984 0.10558656 0.15276887
-0.075736046 0.007960442 0.033872955 -0.16999961 0.06786995 -0.118133 -0.14594156 -0.16584678
-0.03923848 -0.15078054 0.012150027 -0.022182088 0.13881235 0.14330189 0.12409869 -0.16362631
-0.0018390464 -0.018689722 0.11763283 0.06881578 -0.027599948 0.025587428 -0.10517956 -0.17472932
-0.0271477 -0.14599493 0.057636876 0.12502329 -0.14153187 0.12122126 -0.022021806 -0.1427915
0.044059765 -0.05612193 -0.16242957 -0.2112118 0.035997536 -0.21363072 0.012930393 0.09547349
-0.11631675 -0.033396736 0.21788348 -0.061288837 0.1743133 0.11781712 0.03782991 -0.0598896
-0.02234304 0.012733059 -0.110067725 0.034218255 0.101750635 -0.17386436 -0.090351984 0.12246929
-0.1424614 -0.21517065 -0.048004687 0.09449829 0.047281962 0.1739212 -0.05442221 -0.106714875
0.060575 -0.0978204 0.11028441 0.11100308 0.15472777 -0.15717536 -0.102801844 0.20914936
0.18025903 -0.19398615 0.077760406 -0.12769897 -0.11596493 0.09560795 -0.05344219 -0.11308605
0.16079776 0.20903738 0.023647057 -0.20198159 -0.009205524 0.16264105 -0.10316353 -0.010782815
-0.16804275 -0.12595877 -0.06417447 -0.18936414 -0.21228367 0.06949181 -0.088534184 -0.011166008
-0.15826634 0.21119046 -0.023074605 0.05905408 -0.11242356 0.19526228 -0.12743951 0.18384883
-0.08434775 0.19650322 -0.21372376 0.00023420673 -0.17714174 0.06560359 0.04285322 0.12741555
0.04348279 -0.15697952 0.09979881 0.13120359 0.010498104 -0.101453304 0.123026796 -0.098208226
0.03746699 0.0009427463 -0.20899375 0.025670595 0.08752359 -0.12925807 -0.068783656 -0.21599498
0.01341689 0.16538593 -0.06931796 0.13872497 0.020059641 -0.19791749 0.07904304 -0.01439692
-0.11828587 -0.064629406 0.05568243 0.02517066 0.16852508 -0.1661957 -0.1682464 0.03227929
-0.070816524 0.048421703 0.123850726 -0.21045652 -0.058770087 -0.03993582 0.18712278 0.1839079
0.13923267 -0.0882679 -0.14765619 -0.07986296 -0.16866139 0.12014351 -0.16461554 -0.14242671

DA_lstm_layer.decoder.W_d.bias f4 [10]
00000000: 5f70 31bd d223 a73c 9ae1 5bbe aae0 c03d
00000010: 1651 80bd a8bd 303e 0ec0 c4bd 6e9b ce3d
00000020: d2d2 243e 94d4 9bbd
-0.043320056 0.020402823 -0.21472779 0.09417851 -0.06265466 0.17259848 -0.09606944 0.100882396
0.16096047 -0.076089054

DA_lstm_layer.decoder.U_d.weight f4 [10, 10]
00000000: 172e 29be 0204 abbb aaae d3bd 94a9 233e
00000010: 8605 a5bd 4ea7 64be a7fb 373e 45fb 9fbd
00000020: d8bf 5c3d 3501 563e 6577 243d 069b 73be
00000030: e462 83be 6cf3 81bd 503f 16be 63e2 a03b
00000040: 9885 80be a6f8 193e 7c5d 80be 85f0 9c3e
00000050: 0aae 6abe f459 353b 2230 6dbe 669f f83d
00000060: 3c52 4c3e 18ca 68be 6dc7 ac3d 7b3d 053d
00000070: 6e15 893e bba8 323e 74c6 513d 8a92 9f3e
00000080: c7da 953e c8b2 8d3e 7377 4dbc 489d 88be
00000090: d22e 44ba aeee 88be a0f1 76bc 5a8d 38be
000000a0: 580d 45bd 0374 4fbe 0f08 3cbe 25fd 403e
000000b0: 03dd 193e da3f 5f3e cc0d 10bd 33f6 4ebe
000000c0: 16ba d53d ad6c 1f3e 5add 603e a333 9a3e
000000d0: 43ab a63d 0713 26be 7d17 52bd d908 d1bd
000000e0: ae5d 3ebe b83f 9abe 1938 3abe ab6d 6abe
000000f0: f774 9fbe e46d 14be 6190 333e 37be 7fbe
00000100: f0b3 99be d6c5 fb3d be3b fbbd 74fe 2dbe
00000110: 6093 e5bd 9ddf 393e b4ae 8bbe c8f3 8d3e
00000120: 439e fd3b ce42 743d 0364 79be 4db1 9f3d
00000130: 1d40 413e f82b 8e3e 4a0c 323e c560 773d
00000140: ef7a 03be cf47 c9bd ca04 96be ff2b 2c3d
00000150: b12e 243d 01c9 09be 9038 32be 70eb 0c3e
00000160: 1dc5 3cbd 7d94 de3d 5a6a 92bd 85ef f4bd
00000170: fab9 1abc 4898 f73c a9bf 6fbe 12a1 45bc
00000180: 02b6 0e3e 3a26 c83d e2b3 893e 0743 e33d
-0.16521488 -0.0052189836 -0.10336049 0.15982658 -0.08057694 -0.22329447 0.17967092 -0.07811598
0.053893894 0.20898898 0.040152926 -0.23789605 -0.25661385 -0.06345257 -0.1467259 0.0049098
-0.25101924 0.15036258 -0.25071323 0.30652252 -0.22917953 0.0027672024 -0.23162892 0.12139778
0.19953245 -0.22733343 0.08436475 0.032529335 0.26774162 0.17447178 0.05121465 0.31166488
0.29268476 0.27675462 -0.012540686 -0.26682496 -0.00074837834 -0.26744598 -0.015072256 -0.18022671
-0.04810843 -0.20259099 -0.18362449 0.18846567 0.15025716 0.21801701 -0.035169408 -0.20211105
0.10435884 0.155688 0.21959439 0.3011752 0.08138134 -0.16218196 -0.05129193 -0.10206766
-0.18590423 -0.3012674 -0.18185462 -0.22893398 -0.31143925 -0.14495045 0.17535545 -0.24974905
-0.30020094 0.122935936 -0.12267254 -0.16991597 -0.1120975 0.18151708 -0.27281725 0.27725053
0.0077398135 0.059634022 -0.24354558 0.07797489 0.18872114 0.2776792 0.173875 0.06039502
-0.12839864 -0.098281495 -0.2930053 0.042034145 0.04008359 -0.13455583 -0.1740439 0.13761687
-0.04608642 0.10868166 -0.07149191 -0.11959747 -0.009443754 0.03022398 -0.23412956 -0.012062328
0.13936618 0.09772916 0.26895052 0.11096769

DA_lstm_layer.decoder.v_d.weight f4 [1, 10]
00000000: d3e9 49be a848 96be a9f0 143e 21f8 c2bd
00000010: 86f9 14be eef5 6abe 82fd 8b3d 53ea 40bd
00000020: 94a7 263e dc5a 273e
-0.19718103 -0.29352307 0.1454493 -0.09519983 -0.1454831 -0.22945377 0.06835462 -0.04709847
0.16274863 0.16343254

DA_lstm_layer.decoder.w_tilda.weight f4 [1, 11]
00000000: cc8c 86bd 3264 903e 597b 4bbd acf3 7cbc
00000010: 6f17 a73c 79f0 41be 3ffa 8ebe 7652 6d3e
00000020: 0480 163d 1887 c7bd de43 8e3e
-0.065698236 0.28201443 -0.04967818 -0.015438955 0.020396916 -0.1893939 -0.27925298 0.23175988
0.03674318 -0.09742564 0.27786154
